models/best.pth (torch, 17720 bytes, 4 tensors)

fc1.weight f4 [128, 20]
00000000: 01a2 bfbe 5d62 99bc a60c 873e 181e c03e
00000010: a701 e93d e895 00be a788 723e 2710 d33e
00000020: d924 733f d59c 1f3f 9233 b4bd a4c9 a23d
00000030: 9cd8 e63d c1f7 073e 3ba4 45be 355a 913e
00000040: a1f9 963d 04dc 8a3d 90ab bc3d 76ac 2f3d
00000050: 84c5 e3bd 6767 61be d3e5 0b3f 02cc b7bc
00000060: aded abbe e759 a0be 0c6d f93d 16c2 b73e
00000070: 7ee2 a33d bc83 75be da00 07be 1764 adbe
00000080: ec35 9cbc 8713 45bd ad5f 1a3d 767e f0be
00000090: f9f5 e23e 4815 dc3d c5f0 9a3d 8ee3 0bbe
000000a0: 4a5c b0be 186e e5bd 1b09 853e 0d28 853e
000000b0: 3e56 52be ece8 293e ae4e 5f3e 6957 023f
000000c0: 83c4 6b3e ac7f 2e3e abe0 3fbe 2db6 a03e
000000d0: 870d 84be 9a53 113f 3b44 a4be 5ac3 073f
000000e0: 3d86 c93d e301 39bd 21e2 7abe 4743 e33e
000000f0: 0b9d b7be 4745 8cbe 822d 32be a8c0 f03d
00000100: e1bc 04bd 75d6 7ebd 5ce0 f73e e5c4 73be
00000110: 1850 c13e 9d8d e03e c0c4 4dbe c97e 06be
00000120: 437d 87be d8b9 aa37 69dd 7fbe d133 85be
00000130: eadb 373e 4701 553e ebc9 e03e 68c1 753b
00000140: eb9c e3bc 6cff aebe 6d76 94bd 50d3 aabe
00000150: 4df3 d0ba 8d60 b93e 9451 8dbe 9885 c73e
00000160: 0f1c c33d c7e9 1ebf 5a4f c73c 0d91 5bbe
00000170: 941e 1b3e 2ebb 86be 6cfd c7bd d7b9 1c3e
00000180: 72e9 c9be 37bf 44bf fdab 08be d5b6 733c
00000190: 6f49 333f 7d83 4cbd 61d4 243f 6ae3 15bd
000001a0: c339 04be 3432 f33b 46e3 00be 03bc d93d
000001b0: a1b1 4e3d 1e36 a03e db56 29bc f42c cebc
000001c0: a017 92bd 55b2 2d3e d30d 20be 1147 a1be
000001d0: 8240 a7bd 1075 cd3e a703 113e 576d ad3d
000001e0: ba4f 9ebe 4694 16be 992f 3dbe 625b 953e
000001f0: 8b59 3dbe 32c1 e1be 8784 323f 8ad2 36bd
00000200: 8a66 f73c 46a4 063f bed2 bcbd e43b 58be
00000210: 60d7 2739 3da7 8abd 2823 19be 0c2e 9a3e
00000220: f72b d23c 524d 283e 41d8 893e 0b6d 933e
00000230: 802c 4abf 662c 883d e4dd e2bc f876 adbc
00000240: 9704 8e3d 075c 45be b8eb ea3e face d7bd
00000250: fa78 553e 5f9f 12bf b9b8 0bbe 4124 7cbe
00000260: c5aa 023e 8fc9 31be e521 00be be65 45be
00000270: 1c95 043f 6018 06be fce2 833d b51a 37bd
00000280: e948 b4bc f012 55be 5be5 c23d 50aa 8d3e
00000290: 57cd 6dbe 18df 8fbe 888d 15bf 3114 093e
000002a0: 9ea2 65be 354e 89be 7a37 f8bd 855d 913c
000002b0: 9c82 babc a130 9f3e 3e82 c5bd a43b 9e3c
000002c0: aaf1 653d 6e9a 853f e9c6 fc3d 31f0 0cbe
000002d0: 5d56 e7bd 3629 763c 4e3e b7bd 66c8 27be
000002e0: 82fa 7dbe b277 cebe 2ac9 aabe 8739 133e
000002f0: 6fa1 683d 0a31 f3be 604a bd3b 51e9 38be
00000300: de96 48be 46e8 a1bd 1549 aabe 60d6 663e
00000310: 3306 f33d 1c51 7b3f deae 22bd 1b47 8fbd
00000320: 6c78 833e 443d 1d3e aec1 4abe ba8a 36bd
00000330: 587d e83d 2583 8b3d e5ef 343f bed5 153e
00000340: eb8a 8abe 6849 393f e4b0 863e 794d 22bd
00000350: 5c98 28bc f23a 083e e8bc 84bd eeca e8be
00000360: b4c3 88be 6c57 ea3d aed6 f23d e18a 5fbe
00000370: 8ecf 4c3f abae 28bf 9c1e 1f3e 7f02 4e3e
00000380: 512f 8ebe 611d fa3d dd81 583d 5c40 0f3e
00000390: 32b2 81be d8cd 9f3e da57 d93e 0a9f 0dbe
000003a0: 576c 4fbd d155 8a3e 94d7 763d 9370 853e
000003b0: 1131 c3be 7ead 12be 57a4 983d a719 24be
000003c0: 4c7a 343e 19bc 943e 261d acbd 8de7 ed3e
000003d0: f8d7 29be 59de 663e 0271 cb3e 28c5 13be
000003e0: abb5 183e 4cf5 58be 2ab4 aa3e 9766 a93c
000003f0: 3a5a 3b3e ee8a 1a3d 69aa 8bbe 3616 12be
-0.37428287 -0.018723661 0.26376837 0.3752296 0.11377268 -0.12557185 0.23684941 0.4122326
0.949781 0.6234868 -0.08798899 0.07948616 0.11271784 0.13278104 -0.1930093 0.28389135
0.07371832 0.06780246 0.092124104 0.04288908 -0.111216575 -0.22012101 0.5464756 -0.022436146
-0.3357977 -0.3131859 0.12179002 0.35890263 0.08002184 -0.23976034 -0.13183919 -0.33865425
-0.01906868 -0.048114326 0.0376889 -0.46971482 0.44328287 0.107462466 0.075654544 -0.13661024
-0.3444541 -0.11202639 0.2598351 0.2600712 -0.20540711 0.16592759 0.21807358 0.5091463
0.23024182 0.1704089 -0.18738048 0.3138899 -0.2579157 0.5676819 -0.32083306 0.5303246
0.09840057 -0.045167815 -0.24500324 0.44387266 -0.35862002 -0.27396604 -0.17400172 0.11755496
-0.03240669 -0.06221624 0.4841336 -0.23805578 0.3775642 0.43858042 -0.20094585 -0.13134302
-0.26462755 2.035212e-05 -0.24986805 -0.26016095 0.17954984 0.20801269 0.4390405 0.0037499312
-0.027784785 -0.34179246 -0.072491504 -0.33364344 -0.001594165 0.36206475 -0.27601302 0.3896911
0.09526836 -0.62075466 0.02432983 -0.21442051 0.15148383 -0.26314682 -0.09765133 0.15305267
-0.39435917 -0.7685427 -0.13346858 0.0148751335 0.70033926 -0.049930084 0.64386564 -0.036593832
-0.1291266 0.007421756 -0.12586698 0.106315635 0.05046237 0.31291288 -0.010335649 -0.02516792
-0.07133412 0.1696256 -0.15630274 -0.31499532 -0.08166601 0.40128374 0.1416155 0.084681205
-0.30920202 -0.14705 -0.18475188 0.29171282 -0.18491189 -0.4409271 0.6973347 -0.04463438
0.030200262 0.5259441 -0.092198834 -0.21116596 0.00016006595 -0.067701794 -0.14954817 0.30113256
0.02565573 0.16435745 0.269228 0.2879413 -0.7897415 0.06649093 -0.027693696 -0.021174893
0.06934469 -0.19273387 0.45882964 -0.105375245 0.2084693 -0.5727443 -0.13644685 -0.24623205
0.12760456 -0.17362045 -0.1251293 -0.19277093 0.5179002 -0.13095236 0.06439778 -0.044703204
-0.022007423 -0.20808005 0.09516402 0.27669 -0.23222862 -0.28099895 -0.58419085 0.13386609
-0.22425315 -0.2681748 -0.12119956 0.017744789 -0.022767358 0.31091788 -0.09643982 0.019315548
0.056138672 1.0437753 0.123426266 -0.13763501 -0.11295769 0.015024474 -0.089474306 -0.1638504
-0.24802592 -0.40325695 -0.333566 0.14377414 0.05679458 -0.4749835 0.0057766885 -0.18057753
-0.19588801 -0.07905631 -0.33258882 0.22542715 0.11866417 0.9817064 -0.039717548 -0.06995984
0.25677812 0.15355402 -0.19800445 -0.044565894 0.113520324 0.06812123 0.7067855 0.14632317
-0.2705911 0.72377634 0.26306832 -0.039624665 -0.010290232 0.13303736 -0.064813435 -0.45467323
-0.2671181 0.11442456 0.11857353 -0.21830322 0.80004203 -0.6589152 0.1553902 0.2011814
-0.27770475 0.12212635 0.052858222 0.13989395 -0.25331265 0.31211734 0.42449838 -0.138302
-0.05064043 0.27018598 0.060264185 0.2606245 -0.38123372 -0.14323995 0.0745322 -0.1602541
0.17624778 0.29049757 -0.08403997 0.46465722 -0.16586292 0.22545756 0.39734656 -0.14430678
0.14913051 -0.21187323 0.3334058 0.020678801 0.18296137 0.03773015 -0.2727845 -0.14266285

fc1.bias f4 [128]
00000000: 63fd e0be 1026 04bf 2232 c9be a924 55bf
00000010: 9a09 0ebf f9fd fcbe 7641 32bf b519 50bf
00000020: f263 c5be 3328 00bf fb03 89be a6dc 10bf
00000030: 5acd 10bf 625f 80be 82aa 58bf 392a bbbe
00000040: 769f f3be b013 14bf ea17 f5be 89b2 3f3e
00000050: c62f f7be 39b6 2ebf c767 f5be 27e4 12bf
00000060: 8593 a9bd 0191 723e cecf 4dbf da08 b5be
00000070: 5682 02bf 6440 38bf 6029 4cbf 763a 4fbf
00000080: 75bf 25bf 6ec8 b8be 8c46 07bf 7121 2cbf
00000090: aa6d 20bf 5a49 fabe c572 9bbe 0639 2bbf
000000a0: a209 c7be 85fc 02bf 100e f1be 7909 0ebf
000000b0: fa34 78be 8957 c2bd f4c4 dfbe 969c b0be
000000c0: 1508 38bf 8f15 12bf d380 30bf 2b85 2ebf
000000d0: 8e1f 60bd a8b3 febe 0c82 ffbe 6fc2 cfbe
000000e0: b88b e6be d904 52bf 3a01 11bf 68c3 a53d
000000f0: 0ede 1ebe 593d b0be 3c5d dabe 5dd1 08bf
00000100: 1f11 1cbf f00c a8be be24 20bf 639f 0fbf
00000110: bdc4 c8be cf5e f3be 7586 07bf 3e6b 173d
00000120: d715 7dbf 0ee7 39bf 16a3 28bf bcab 19bf
00000130: 12fa b6be 17e6 f0be 3926 4abe 6206 debe
00000140: 5ed9 a5be 02dc d3be 6f5d f7be d7b4 02bf
00000150: 996f 2cbf 1493 7cbd d52d e7be 0454 66bf
00000160: 1ed7 c5be dead 30bf 2a30 a23d 72f0 3dbe
00000170: d752 5cbf 998e e0be bf59 1abe d430 9dbe
00000180: 1083 afbe db19 1dbf 3500 45bf 0016 123d
00000190: 3d4e 16be 2de5 9bbe 431c 13bf 60ac 07bf
000001a0: 69de eebe c56a 23bf cb99 63be fbdb b5be
000001b0: cd47 cdbe 0ba1 2bbf 751d 33bf e1fd f8be
000001c0: a105 dcbd cb0a 52bf a60a 2cbf b8e4 b2be
000001d0: 542f 65bf c056 d0be 4c68 e2be 1467 3bbf
000001e0: b303 aebe 50d0 febe 6ef2 1dbf bf4b 9ebe
000001f0: ff8f 6bbf c1d9 a8be c1bd d6be a8f8 33bf
-0.4394332 -0.5162058 -0.3929606 -0.83259064 -0.554834 -0.49412516 -0.69631135 -0.81289226
-0.38552815 -0.5006134 -0.2676085 -0.5658668 -0.5656334 -0.2507277 -0.84635174 -0.3655565
-0.47582597 -0.5784254 -0.47869807 0.1872045 -0.48278636 -0.682468 -0.47930738 -0.5737938
-0.0828009 0.23688127 -0.8039521 -0.35358316 -0.50980127 -0.7197325 -0.79750633 -0.8094858
-0.64745265 -0.36090416 -0.5284202 -0.6723853 -0.62667334 -0.48884088 -0.30361 -0.66883886
-0.38874537 -0.51166564 -0.4708104 -0.55483204 -0.24238959 -0.09489352 -0.4370495 -0.34494466
-0.7188733 -0.57064146 -0.6894657 -0.6817195 -0.054717593 -0.49746442 -0.49903905 -0.4057803
-0.45028472 -0.82038647 -0.56642497 0.080939114 -0.15514395 -0.34421805 -0.42649257 -0.53444463
-0.60963625 -0.3282237 -0.62556064 -0.5610258 -0.392126 -0.4753327 -0.5293954 0.03696751
-0.9886145 -0.72618186 -0.6587385 -0.6002767 -0.35737664 -0.47050545 -0.19741143 -0.43364245
-0.323924 -0.4137879 -0.48313472 -0.5105719 -0.67357785 -0.061663702 -0.45152155 -0.8997195
-0.38640684 -0.690153 0.07919343 -0.18548754 -0.86063904 -0.43858793 -0.15073298 -0.30701315
-0.3427968 -0.6136758 -0.7695344 0.035665512 -0.14678283 -0.30448285 -0.57465 -0.529974
-0.4665406 -0.6383479 -0.22226636 -0.35519394 -0.40093842 -0.6704261 -0.6996682 -0.48631194
-0.10743261 -0.8204772 -0.6720375 -0.34940124 -0.8952534 -0.40691185 -0.44220197 -0.7320416
-0.33987197 -0.49768305 -0.61698043 -0.30917165 -0.92016596 -0.32978633 -0.41941646 -0.70301294

fc2.weight f4 [10, 128]
00000000: 918c 40be 2fe8 64be 4e82 883e 819d b93e
00000010: bdce a6be ed43 c7bc 0d78 ac3e 089f 5cbf
00000020: 284d 20be e9da 70be 5d98 463e 1af6 2e3e
00000030: 99be 543e 568c 673e 69d7 41be fc4a 95bf
00000040: 6ffc 96be ede5 b13e 8e29 f23d 3a7d 4bbf
00000050: 7d71 83bf 5241 a1be b0ac 8c3e a126 4d3e
00000060: d2eb 313e 9406 4d3e b362 5d3e e0d7 89bf
00000070: d757 22bf 19c7 b6bd cc64 fabe f387 3fbf
00000080: 3e41 723e dfc1 85bd e6e7 813e 3f15 f9bd
00000090: 2f9b a2bf 6e05 103e a5ac c43d f56a 073e
000000a0: 4d11 89bf d5ed 3cbe a9df c2be 5ecd f9be
000000b0: b1a6 c5bf 3571 133e 391f 54bf 4c86 a8be
000000c0: ef91 dabe 9795 9d3e d58b 213d c74e 97bf
000000d0: 3a3f 4e3e cace 95bf 6e25 febd 91ca 8abe
000000e0: 48fa 45bf ebb0 47bf 33b5 a13e 93fb 003e
000000f0: 00a3 973e 0093 c63e 7937 2d3e be17 9ebf
00000100: 5d3a 923e 6c96 22bf 950d 053e 0bf2 25be
00000110: e685 5b3e bac5 a03e e96e 5ebe 666c 7e3b
00000120: 6087 9f3e 9f6d 31bf 846b 37bf 8dcb 4d3d
00000130: 1dd2 8ebe 0bbe 9bbf 10fe 6e3d 28b8 053e
00000140: 5faf 823e 2578 a03c 75fb 8c3e 0e00 823e
00000150: b58b 3d3e 51bd 133e 8ad1 7c3e 3286 49bf
00000160: 6bcc 79bf 423d 343e e7b1 ea3d 115a 243e
00000170: 138f d73e 5d5b afbf 8c81 e23d f525 f0be
00000180: bc90 6abf 7e27 843e 1d47 3cbf 431d 92bf
00000190: eebd 483e ee9d 1ebf fbbe 903e 18c6 9d3e
000001a0: 201b 8d3e 0dc1 99bf 1421 40be c281 0cbc
000001b0: b938 7fbf d05a db3e de5b 8a3d cd04 1ebf
000001c0: 2912 03bf 1dd2 efbe 3630 6f3e 529b 243d
000001d0: 1b3f c2be 96a2 87bf de53 9d3e 570e 23bf
000001e0: d667 8fbf a4cf a2be 4e28 a83d 1eb1 463e
000001f0: e043 c03e 532c d7bd 013a 05bf e25b 143e
00000200: 31e2 343e 89b0 6fbe 9473 4cbf 996f cc3e
00000210: bac8 24bf 782f cb3e 90cd d53e 24b7 ea3e
00000220: 9a25 3d3e d236 983d 1886 f5be d25b 283d
00000230: f3e4 1b3e cb43 cdbe 42b1 93bf 44b7 2d3e
00000240: 191b 163e 275c 36bb 5a68 37be 3e37 533e
00000250: 7df0 fabf 64f1 b53e 708b c73d 46d3 fbbf
00000260: 7926 a8bf 0fc5 aabe 4e22 0dbe c431 443e
00000270: 50bb 143e 91aa 683e 467a 4c3d e09d 1f3f
00000280: 6ab8 90bf e27e 98bf 980f 8a3e 27df 823e
00000290: c337 9bbf bdea 45bf 6fb9 41bf 6dde 22bf
000002a0: d221 593e 6026 b33e 7739 c33e 63ca 4a3e
000002b0: 64e8 0c3e cfcb 99bf 2c64 173e 25c8 7e3e
000002c0: 3d3b 973e f438 02bf 2dfa 233e a2ee 583e
000002d0: 6aeb ecbe 7a5e 80bf 51c9 aabd f970 8a3e
000002e0: 7b00 2ebf b2fc cd3c adb4 2fbf 8bcc 22be
000002f0: 70cd 413e 5b28 13bd 7013 26be abd6 233e
00000300: 42d1 90be 0950 a03e e066 1dbe 08b4 ec3d
00000310: 0761 d23e 3104 f5be 5984 1e3c 4bfc 43bf
00000320: 5258 0cbf bccd ec3d ed52 a4be 2255 03bf
00000330: 427f 023e 5993 6e3e 2186 96bf 91a9 05bf
00000340: fbce 06bf c75e 003e 4cde 44bf 1ff4 53bf
00000350: 7a3a 85bf 963e fe3c a2da 1d3e 2c00 013f
00000360: 51f5 5fbf eabf 573d 8b60 b33d 5392 0bbf
00000370: 1da7 b53e 7355 d8be 8002 dbbd 02fa 97be
00000380: 7bba 8b3d e7a3 df3c 11f4 b03e 9196 433e
00000390: a463 43bf a17e 023e bcc4 cfbe 6297 07bf
000003a0: f498 b5be 7c87 993e 3edc 293e fedc 743d
000003b0: 369f 373e 4b36 f4bd 53c8 45be 0926 a2be
000003c0: c643 4abf bb84 0e3f 5a4f 68bf 0369 11be
000003d0: b04e f43e d129 b0be 2cb0 cebe d67a b93d
000003e0: 17cc b0be f2a9 26bd e21f cebe 2b86 91bf
000003f0: 5965 00bf f422 c1be a8aa 5e3d 0aec 0abf
-0.18803622 -0.22354196 0.26661915 0.36252978 -0.32579604 -0.024324382 0.3368534 -0.8618016
-0.15654433 -0.23521008 0.1939406 0.17086068 0.20775832 0.22612128 -0.18929829 -1.1663508
-0.29489467 0.34745732 0.11824332 -0.79487956 -1.0269009 -0.31495148 0.274755 0.20034267
0.17375115 0.2002204 0.21619682 -1.0769005 -0.6341528 -0.089246936 -0.48905027 -0.7481682
0.236577 -0.065311186 0.25372237 -0.121622555 -1.2703608 0.14064571 0.09603242 0.13224395
-1.0708405 -0.184501 -0.38061264 -0.48789495 -1.5441495 0.14398654 -0.8286014 -0.3291496
-0.42689463 0.3077819 0.039439995 -1.1820916 0.20141307 -1.1703732 -0.12409483 -0.2710767
-0.77335024 -0.7800433 0.31583557 0.12595968 0.29616547 0.38784027 0.16915692 -1.2350996
0.28560153 -0.63510776 0.12993462 -0.16205613 0.21437797 0.31400853 -0.21721996 0.0038821935
0.3115797 -0.69307894 -0.7164843 0.05024295 -0.2789468 -1.2167372 0.05834776 0.13058531
0.25524423 0.01958854 0.27535596 0.25390667 0.18510325 0.14427687 0.24689308 -0.7872039
-0.9757754 0.17601493 0.114597134 0.16049983 0.42101344 -1.3699757 0.11059865 -0.4690396
-0.916271 0.2581138 -0.7354601 -1.141518 0.19603702 -0.6195973 0.28270707 0.30815196
0.27559757 -1.201204 -0.18762618 -0.008575859 -0.99695927 0.42842722 0.067558035 -0.61726075
-0.51199585 -0.4683999 0.23358235 0.040187187 -0.3793877 -1.0596492 0.30728048 -0.63693756
-1.1203563 -0.31799042 0.082108125 0.19403502 0.37551785 -0.10506501 -0.5204163 0.14488176
0.1766441 -0.23407187 -0.7986386 0.39928892 -0.64368784 0.39684653 0.41758394 0.4584285
0.18471375 0.07432331 -0.47953868 0.04110319 0.15224056 -0.40090784 -1.153847 0.16964442
0.14658774 -0.0027825923 -0.179109 0.20626542 -1.9604641 0.3553573 0.097433925 -1.967385
-1.3136741 -0.3335347 -0.13782617 0.19159609 0.14524579 0.22721316 0.049921297 0.62350273
-1.1306279 -1.1913722 0.26965022 0.25560877 -1.2126392 -0.7731131 -0.75673574 -0.63620645
0.21204308 0.34990215 0.3812978 0.19803767 0.13760525 -1.2015322 0.14784306 0.24881037
0.29537383 -0.50868154 0.16013403 0.21184781 -0.46273357 -1.0028832 -0.08339179 0.27039316
-0.67969483 0.025144909 -0.68635064 -0.1589834 0.18926024 -0.035927158 -0.16218352 0.15999858
-0.2828465 0.31311062 -0.15371275 0.11557776 0.4108965 -0.4785476 0.009675109 -0.76556844
-0.54822266 0.11562678 -0.32094517 -0.5130178 0.12743858 0.23298396 -1.1759683 -0.5221186
-0.5265958 0.12536155 -0.769017 -0.82794374 -1.0408471 0.031035703 0.15415433 0.5039089
-0.874837 0.052673258 0.087586485 -0.5452015 0.3547906 -0.42252693 -0.10693836 -0.29682928
0.06822678 0.027299834 0.34561208 0.19100405 -0.76323915 0.12743618 -0.40579784 -0.52965367
-0.35468256 0.2998618 0.16587922 0.059781067 0.17931828 -0.11924418 -0.19314699 -0.31669644
-0.79009664 0.5567128 -0.9074608 -0.14200215 0.47716284 -0.34406903 -0.40368783 0.09056632
-0.34530708 -0.040689416 -0.402587 -1.136907 -0.50154644 -0.3772198 0.05436197 -0.5426642

fc2.bias f4 [10]
00000000: d6a1 04be e90f 0e3e 9952 88be e5c7 7dbe
00000010: 88ce c23d 7690 d0bc cf54 a0bd 9169 acbe
00000020: 04d2 103f 955f 8e3d
-0.1295236 0.13873257 -0.26625517 -0.24783285 0.09512049 -0.02545951 -0.07828676 -0.3367429
0.5657046 0.069518246
